app/models/cow_lstm.tflite (tflite, 39600 bytes, 7 tensors)

arith.constant f4 [256]
000000 44 da ad 3e 53 b5 5d 3e d4 08 c1 3e 9b 80 ad 3e
       0.33955586 0.21651201 0.37702048 0.3388718
000010 1d ac a6 3e 9b 2d bd 3e 0f 17 ac 3e a8 7c b0 3e
       0.32553187 0.36948857 0.33611342 0.34470105
000020 dc b1 15 3f fd 71 e7 3e 79 59 a9 3e ff c9 99 3e
       0.58474517 0.45204154 0.33076075 0.30036923
000030 33 82 d3 3e 7e f4 23 3e 9e 57 da 3e da d8 d3 3e
       0.41310272 0.16011235 0.42644972 0.41376382
000040 9b 89 b3 3e 1f 72 b7 3e ba f6 b8 3e c0 3d db 3e
       0.35065922 0.35829255 0.36125737 0.4282055
000050 61 bb bb 3e 16 83 a4 3e f1 42 ac 3e 9a 06 87 3e
       0.36666396 0.3213126 0.33644822 0.26372224
000060 f7 cf b3 3e 8e 01 bb 3e 2c 5e a4 3e af ae 95 3e
       0.35119602 0.36524624 0.32103097 0.29234836
000070 ae f7 be 3e 17 9f 90 3e 86 3e 64 3e 7f a0 98 3e
       0.3729834 0.28246376 0.22289476 0.2980995
000080 af cd 73 3e ab 96 83 3e c9 48 17 3f 2d 64 92 3e
       0.23808931 0.25700888 0.59095436 0.28592053
000090 d8 f0 a3 3e 50 4e ff 3e d1 79 03 3f 30 c4 cd 3e
       0.32019687 0.49864435 0.5135775 0.40188742
0000a0 7f 3d 91 3e de ef 9b 3e 89 78 ef 3e 02 d5 98 3e
       0.2836723 0.30456442 0.4677165 0.29850012
0000b0 6a eb a6 3e 15 7a 7d 3e 87 27 63 3e 5d 97 25 3f
       0.32601482 0.24753602 0.22183047 0.6468409
0000c0 4a 56 c4 3e 67 90 9f 3e bd 46 95 3e 4c 6e d7 3e
       0.38347083 0.31164858 0.29155532 0.42076337
0000d0 87 cd ab 3e a0 0b 8d 3e ab 1a fe 3e c9 46 97 3e
       0.33555242 0.27547932 0.4962972 0.29546192
0000e0 0c 49 a9 3e ea 81 1a 3e e9 01 c4 3e d3 1a 5b 3e
       0.33063543 0.15088621 0.38282707 0.21396951
0000f0 bc 6c 6b 3e 57 5f 9a 3e 60 25 c6 3e 76 6f ad 3e
       0.22990698 0.30150864 0.3870039 0.338741
000100 00 00 80 3f 00 00 80 3f 00 00 80 3f 00 00 80 3f
       1.0 1.0 1.0 1.0
000110 00 00 80 3f 00 00 80 3f 00 00 80 3f 00 00 80 3f
       1.0 1.0 1.0 1.0
000120 00 00 80 3f 00 00 80 3f 00 00 80 3f 00 00 80 3f
       1.0 1.0 1.0 1.0
000130 00 00 80 3f 00 00 80 3f 00 00 80 3f 00 00 80 3f
       1.0 1.0 1.0 1.0
000140 00 00 80 3f 00 00 80 3f 00 00 80 3f 00 00 80 3f
       1.0 1.0 1.0 1.0
000150 00 00 80 3f 00 00 80 3f 00 00 80 3f 00 00 80 3f
       1.0 1.0 1.0 1.0
000160 00 00 80 3f 00 00 80 3f 00 00 80 3f 00 00 80 3f
       1.0 1.0 1.0 1.0
000170 00 00 80 3f 00 00 80 3f 00 00 80 3f 00 00 80 3f
       1.0 1.0 1.0 1.0
000180 00 00 80 3f 00 00 80 3f 00 00 80 3f 00 00 80 3f
       1.0 1.0 1.0 1.0
000190 00 00 80 3f 00 00 80 3f 00 00 80 3f 00 00 80 3f
       1.0 1.0 1.0 1.0
0001a0 00 00 80 3f 00 00 80 3f 00 00 80 3f 00 00 80 3f
       1.0 1.0 1.0 1.0
0001b0 00 00 80 3f 00 00 80 3f 00 00 80 3f 00 00 80 3f
       1.0 1.0 1.0 1.0
0001c0 00 00 80 3f 00 00 80 3f 00 00 80 3f 00 00 80 3f
       1.0 1.0 1.0 1.0
0001d0 00 00 80 3f 00 00 80 3f 00 00 80 3f 00 00 80 3f
       1.0 1.0 1.0 1.0
0001e0 00 00 80 3f 00 00 80 3f 00 00 80 3f 00 00 80 3f
       1.0 1.0 1.0 1.0
0001f0 00 00 80 3f 00 00 80 3f 00 00 80 3f 00 00 80 3f
       1.0 1.0 1.0 1.0
000200 cb 04 66 be 8b 86 33 3e 99 57 6e be 96 e9 00 3e
       -0.22462766 0.17531793 -0.23275603 0.12589106
000210 af ae 60 bd 05 fa 21 bd 18 24 11 bd 75 bc 56 be
       -0.05485409 -0.039545078 -0.035434812 -0.20970328
000220 a3 ef 0e 3d 47 2d 1f 3e 59 eb 3d bd a6 57 79 be
       0.034896504 0.15544616 -0.046367023 -0.24349841
000230 08 de 65 3d c8 a1 4b bd 56 aa 57 be cc df 31 3e
       0.05611995 -0.049714833 -0.21061072 0.17370528
000240 7f 75 03 3e 1b e9 4e be 39 61 7c 3e d9 98 15 be
       0.1283779 -0.2020611 0.24646463 -0.14609088
000250 7e 30 c5 bd 10 68 71 3e 03 1d f4 bd 8d 80 07 3e
       -0.0962839 0.23574853 -0.11919596 0.13232632
000260 17 7e 81 be 88 f0 45 be 3b a1 01 be ba 99 3b 3d
       -0.2529151 -0.19330037 -0.12659161 0.045800902
000270 c0 aa 7a be 99 a2 b9 3c e8 53 25 be d9 35 42 be
       -0.24479198 0.02266054 -0.16145289 -0.18965854
000280 6a 08 4d be ba ba a1 bd 14 aa 87 3e fd 0c 37 3e
       -0.20022741 -0.078969434 0.26496947 0.17876048
000290 25 c0 82 bc 41 d0 87 bd 7d 1d 92 3e fb d4 12 be
       -0.015960762 -0.06631518 0.28538123 -0.14339058
0002a0 d0 37 d3 bc 6c 88 47 3e 53 6f 75 be 32 26 f3 bd
       -0.02578345 0.19485635 -0.23968248 -0.118725196
0002b0 72 ca 89 be 23 b5 53 bd cd 00 15 bd 41 52 33 be
       -0.26912266 -0.051686417 -0.036377717 -0.17511846
0002c0 7d 35 10 be a0 5a 92 be fb 0d 18 3e b4 86 47 3c
       -0.14082904 -0.28584766 0.14849083 0.012178112
0002d0 14 12 49 3e d0 81 d5 3d 22 70 80 3e 9e c9 5a be
       0.19635803 0.104251504 0.2508555 -0.21365973
0002e0 ac 23 e7 bd e0 8d 34 3e 92 dc d6 3c 0f 0b 36 be
       -0.11286101 0.17632246 0.026228223 -0.17777656
0002f0 f0 00 dd 3d 85 c4 80 be b6 c8 3c 3e 1b ee e8 bd
       0.107911944 -0.25149933 0.1843594 -0.1137354
000300 f8 b4 af 3e 99 cb 4e 3e 13 7e b6 3e a6 82 b2 3e
       0.34317756 0.20194854 0.35643062 0.34865302
000310 b1 d0 a9 3e dc 00 ae 3e 8e f2 a1 3e 27 df b9 3e
       0.3316703 0.3398503 0.31630367 0.36303064
000320 85 2f 15 3f 5a 57 d7 3e b6 40 a9 3e 42 2b be 3e
       0.58275634 0.4205883 0.33057183 0.37142378
000330 44 17 c6 3e ce 72 23 3e 8b af dc 3e ee 31 df 3e
       0.38689625 0.15961763 0.4310268 0.4359278
000340 d5 36 ac 3e 46 b7 b3 3e b7 3a bf 3e c4 2e c3 3e
       0.33635584 0.35100764 0.37349483 0.38121617
000350 ea a6 bc 3e bc 4b aa 3e 20 dd a9 3e 86 34 8b 3e
       0.36846095 0.33260906 0.33176517 0.2718851
000360 d1 cb af 3e c4 ab a1 3e e9 30 a1 3e 82 18 99 3e
       0.34335187 0.3157636 0.31482628 0.2990151
000370 3e 8c c2 3e a9 02 91 3e 85 21 6a 3e 32 58 91 3e
       0.3799762 0.28322342 0.22864349 0.283876
000380 b8 a1 7b 3e 55 55 77 3e b7 fe e9 3e b0 42 97 3e
       0.2457341 0.24153645 0.45702145 0.29543066
000390 63 ae ad 3e 0b 8e ef 3e 6b 38 0c 3f 42 cf e4 3e
       0.3392211 0.46788058 0.54773587 0.44689375
0003a0 f8 85 9b 3e e7 0e 9d 3e eb 71 ed 3e 34 6c 89 3e
       0.30375648 0.30675432 0.46375975 0.26840365
0003b0 7d f6 b4 3e 4e ec 6f 3e 81 6e 64 3e 12 dd 20 3f
       0.35344306 0.23429987 0.22307779 0.62837327
0003c0 19 a9 d3 3e 2d f7 91 3e 11 5b 85 3e ec 0b cb 3e
       0.4133995 0.28508893 0.2604604 0.39657533
0003d0 db ba bc 3e 15 3c 90 3e b6 12 e9 3e 40 bd 87 3e
       0.3686131 0.2817084 0.45522088 0.26511574
0003e0 4b 2a b5 3e ee e2 64 3e 4e 01 b2 3e eb fe 67 3e
       0.3538383 0.22352192 0.3476662 0.22655837
0003f0 1a ce 75 3e af d0 8d 3e 5d 03 cc 3e 11 9e 8f 3e
       0.24004403 0.27698275 0.39846316 0.28050283

arith.constant1 f4 [6]
000000 39 8d 8b bd 59 05 0d 3e e5 28 df bd 2d e3 44 3d
       -0.068140455 0.13771571 -0.10896472 0.048068214
000010 37 33 23 3d 6c 02 20 bd
       0.039843764 -0.03906481

arith.constant2 f4 [64]
000000 27 c3 b4 3d 08 9c e3 3d b4 62 78 3d 94 99 17 3e
       0.08826285 0.11113745 0.060641006 0.14804679
000010 62 2c f8 3d d6 68 af 3c 26 e4 3d 3e ff 0c a9 3d
       0.1211784 0.021412294 0.18544063 0.08254432
000020 48 cb 43 3e 67 0a 1e 3e c0 b0 2b 3e ab f9 98 3d
       0.19120514 0.15433656 0.16766644 0.074694954
000030 0b 06 e8 3d 40 6f 25 3e d4 7c 13 3d 27 17 dd 3d
       0.113292776 0.1615572 0.036007717 0.107954316
000040 c7 cc 14 3e 58 0f 3c 3e 50 42 42 3d b1 f5 33 3e
       0.14531241 0.18365228 0.04742652 0.17574193
000050 e3 53 13 bd 55 83 88 3d 61 75 6a 3d 1a d8 58 3d
       -0.035968672 0.066656746 0.057240847 0.052940466
000060 60 a0 49 3e 33 ce 22 3e 38 9f aa 3d cb 6b 6a 3d
       0.19690084 0.15898971 0.0833115 0.057231706
000070 22 72 3e 3d d7 e0 15 3e 6f e5 c2 3d 09 5d e6 3d
       0.046495564 0.14636551 0.09516417 0.11248214
000080 5c d5 9d 3d 1d 1a c8 3d cc 0c 10 3e 24 ec 2b 3e
       0.07706711 0.09770606 0.14067382 0.16789299
000090 93 ef dc 3d c6 4e 82 3d 73 e5 49 bd aa 82 1d 3e
       0.10787883 0.06362681 -0.049291085 0.15381876
0000a0 28 27 0f 3e 61 80 9e 3c ff 43 4d 3e 61 d1 1c 3e
       0.1397978 0.019348325 0.2004547 0.15314247
0000b0 91 95 70 3d 8a a8 da 3d 1d b0 09 3e 49 ca c1 3d
       0.058736388 0.106766775 0.13446088 0.09462411
0000c0 9a 58 6d 3d 2a 11 95 38 1c 32 ae 3d 76 69 b2 3d
       0.057945825 7.108071e-05 0.08505651 0.08711521
0000d0 5f 7b 4c 3a 39 2c 90 3d d2 fb 23 3e 71 31 0f 3e
       0.0007800366 0.07039685 0.1601403 0.13983704
0000e0 53 d5 26 3e 7b b7 9a 3c 5d d7 e5 3d 5a fc 4a 3e
       0.16292314 0.018886318 0.11222718 0.19822827
0000f0 3a b1 b4 3d 6c c8 a3 3d 9e 7f 85 3d 35 49 15 3d
       0.08822866 0.07997212 0.06518482 0.03644677

arith.constant9 f4 [6, 64]
000000 85 b7 ce 3e 31 e0 93 3e b3 91 b1 be 93 cd a3 be
       0.4037439 0.28881982 -0.34681472 -0.31992778
000010 de 8a b4 be 93 0a 40 3b 33 85 a7 3d 0d 2c 35 3d
       -0.35262197 0.0029303178 0.081797026 0.044231463
000020 a0 b5 0e bf 12 03 a6 3e 89 16 86 be 5e 7f 7f bd
       -0.5574589 0.32424217 -0.26189068 -0.062377326
000030 df 24 89 be 4a b9 ca be f2 73 9d be 5a 91 21 be
       -0.26785943 -0.3959449 -0.30752522 -0.15778103
000040 cb d6 98 3e 4e ff be 3e e6 0f 69 be ac d8 b2 be
       0.29851374 0.37304157 -0.22759971 -0.34930933
000050 6a b7 d6 3e dd 0e 2b 3e b0 97 00 3e ab 29 c8 3e
       0.4193681 0.16704889 0.12557864 0.3909429
000060 da b4 ad be 58 04 08 be 80 c8 60 be 3a fd dd be
       -0.3392704 -0.13282907 -0.21951485 -0.4335726
000070 f8 50 be 3e 56 76 a0 3d 4f d4 95 be 83 42 2b bd
       0.3717115 0.07835071 -0.2926354 -0.041811477
000080 3d e3 c4 be 69 f8 5a bc c2 ff ff be 73 e9 e4 be
       -0.3845462 -0.01336489 -0.49999815 -0.44709358
000090 c3 35 ce 3d a8 ea d8 be 76 c7 1a be cc 18 8d 3e
       0.10068848 -0.4236653 -0.15115151 0.2755798
0000a0 1d a4 d6 3e 97 d1 ec 3e 19 7f 0f bf ae e6 bf 3e
       0.41922083 0.46253654 -0.5605331 0.37480682
0000b0 a4 9e 0f 3e 6e 34 b8 be ae ee c2 3e 42 4e b5 3e
       0.1402536 -0.359775 0.38072723 0.35411268
0000c0 e3 dd 30 be 76 1a 11 be 82 cb cf be 69 ad b0 be
       -0.17272143 -0.1417025 -0.40584952 -0.345073
0000d0 c0 5b df 3e 85 89 cb be ba e6 94 be 5e e5 ce 3e
       0.43624687 -0.39753357 -0.2908228 0.40409368
0000e0 49 5f 1e be e1 7b 6d be 84 42 3a be 48 e7 00 bf
       -0.15466036 -0.23191787 -0.18189436 -0.5035291
0000f0 73 8a ea be 3f b7 ae be 03 6b 30 be 58 13 d7 3e
       -0.45808753 -0.3412418 -0.17228322 0.42006946
000100 6f 58 d8 be 1a 74 85 3e 19 ae e7 be dd d5 b6 be
       -0.4225497 0.2606514 -0.45250013 -0.3571004
000110 ab b4 29 3c 10 23 24 bd 06 a2 af 3e 40 ac f4 be
       0.010358016 -0.0400725 0.34303302 -0.47787666
000120 9b fd 43 3e e9 ce e6 3e fc f4 da 3e 97 99 eb 3c
       0.19139712 0.45079735 0.42765033 0.02875976
000130 9a a5 db be c7 15 a3 3d 38 f4 d9 be de 54 0d bf
       -0.4289978 0.07963138 -0.42569137 -0.5520762
000140 6c a1 24 3f 2d 1f 84 3e 5a 6e d2 be ca 04 01 3f
       0.6430881 0.25805035 -0.41099817 0.5039793
000150 b3 9f 00 bf 6d 51 bd be 49 b5 24 be 9f 3d d5 be
       -0.5024368 -0.36976185 -0.1608478 -0.41648576
000160 75 64 3b 3c 3e a0 ed 3e e2 54 24 3e 00 5e 19 bf
       0.011437525 0.46411318 0.16048005 -0.5990906
000170 ac 8d 04 bf ed 30 27 3e 21 12 f4 be ca e3 9f be
       -0.51778674 0.16327257 -0.4767008 -0.31228477
000180 69 8e 09 3f ec a8 b8 be 51 63 e4 3e 36 7c 19 3f
       0.53732926 -0.36066377 0.44607022 0.59955156
000190 d4 30 e2 be bd 4c ec bd a7 52 ff bc 7a 1f 58 3e
       -0.44177878 -0.11538074 -0.031167341 0.21105757
0001a0 1b 94 bb 3e 37 10 b6 be bb 76 ba 3e 84 bf d3 be
       0.36636433 -0.35559246 0.3641871 -0.41357052
0001b0 38 f7 98 be 9b f6 ba be a9 c8 00 3f d9 42 cb bd
       -0.29876113 -0.3651627 0.50306183 -0.099248596
0001c0 16 b7 40 be a1 85 79 bf 51 14 27 bf 2e 08 f2 be
       -0.18819842 -0.97469527 -0.65265375 -0.47271866
0001d0 c3 53 ac be 7d 25 23 be a9 00 f5 3e 30 f6 9a 3e
       -0.33657655 -0.1593227 0.47852066 0.3026595
0001e0 a2 0b 01 3f 50 35 de be 95 40 18 bf 99 7a 4c 3f
       0.50408375 -0.4340005 -0.59473544 0.7987457
0001f0 b6 1d 01 bf 71 42 14 bf 1d c9 a7 be 96 0a fc be
       -0.5043596 -0.5791388 -0.32770625 -0.49226826
000200 3b c2 92 3f 69 8e bc be cc ac 29 3e da ca 02 be
       1.1465524 -0.368274 0.16569823 -0.12772694
000210 ca 2e 36 bf ea 8a 2e 3f 79 48 9a be 6a f6 83 be
       -0.71165144 0.68180716 -0.30133417 -0.25773937
000220 f7 11 52 bf 8d 41 6c be 83 5a 09 bf ba e5 0d 3f
       -0.8205866 -0.2307188 -0.53653735 0.5542866
000230 96 fe 00 bf e3 db 21 bf 37 4f d1 3d af 21 bf 3c
       -0.5038847 -0.63226146 0.10220187 0.023331491
000240 b8 a4 a0 be ad f5 55 bf 89 24 0d 3f a6 75 a3 be
       -0.3137567 -0.83577996 0.55133873 -0.31925696
000250 50 32 0c be 05 04 89 3e df 8a 0b 3f 69 a7 29 3f
       -0.13691068 0.2676088 0.54508775 0.6627107
000260 ee f6 96 be b2 ae 40 be b2 cf 14 3e 26 27 cc 3e
       -0.29485267 -0.18816641 0.14532354 0.39873618
000270 b6 c7 e2 be 6e e0 e1 be a0 56 7f bd 48 a6 2b bc
       -0.44292992 -0.4411654 -0.06233847 -0.010476656
000280 af 6f df 3d cb 2e 69 bf 8e 62 1b be 5e 36 bb be
       0.10909974 -0.91087025 -0.15174314 -0.36564916
000290 75 c9 0e 3e 2a 53 ac 3e 18 2d 22 3f 63 c6 17 3f
       0.13944037 0.336572 0.6335006 0.5928709
0002a0 ed 18 91 be 5e 5e d4 be 54 8a 61 bf 59 d7 cb 3e
       -0.2833933 -0.41478246 -0.88101697 0.39812735
0002b0 cd 1c 0b 3f e2 88 cf 3e 37 a8 97 be 98 78 f9 3e
       0.5434082 0.4053412 -0.29620525 0.48724818
0002c0 79 80 e1 3e 41 17 b0 be 15 00 06 be ec 2c 5e 3d
       0.4404333 -0.3439274 -0.13085969 0.05424206
0002d0 33 29 cf bd af 94 a2 3e 34 e8 e3 be c2 f3 89 be
       -0.1011528 0.31754062 -0.44513094 -0.26943785
0002e0 21 d0 54 be 8f 55 69 3e 73 d9 ec 3e 47 bb 0d bd
       -0.2078252 0.22786544 0.4625965 -0.03460243
0002f0 f8 bd 0e bf 11 53 8e 3e 64 15 f2 3e 76 f2 04 3f
       -0.5575862 0.2779775 0.47281945 0.51932466
000300 db 56 9b bd 55 02 ca bd 36 13 21 bf 18 81 3c 3e
       -0.07584926 -0.09863726 -0.6291994 0.1840862
000310 33 1b 75 be ea 45 35 be 47 4c f4 3e 8a 5a 0a 3f
       -0.23936157 -0.17702451 0.47714445 0.540444
000320 d8 d7 c8 3d 0a 70 dc 3e 31 06 bf 3e b2 19 67 3e
       0.09806794 0.4305423 0.3730941 0.22568396
000330 67 fb 91 3e 7a 21 59 3e 52 99 0f bf 3e e7 00 3f
       0.28512117 0.21204177 -0.56093323 0.5035285
000340 49 bd 3a bf 2d 42 10 be 7f c2 10 3f 5b cd b1 be
       -0.72945076 -0.14087744 0.5654678 -0.34726986
000350 56 22 1c bd 0f d2 eb be 86 c6 7f be 91 6c b6 bd
       -0.038118683 -0.460587 -0.24978074 -0.08907426
000360 ef 05 f0 3e 37 de a9 3d 65 9b 0c bf 26 58 cf be
       0.46879527 0.08294337 -0.54924613 -0.4049694
000370 91 e2 bb bc cd 8b dd bd 41 d0 4d be 67 e8 12 3f
       -0.022935184 -0.108176805 -0.20098974 0.5738587
000380 7d f4 7c bd d1 d4 7c 3e cb 6e 1f bf d8 75 dc 3e
       -0.0617566 0.24690558 -0.6227843 0.43058658
000390 a4 cb 35 bf 4d 4a 79 be 16 88 80 be da 59 c9 bd
       -0.71013856 -0.2434475 -0.25103825 -0.09831591
0003a0 88 10 43 be ae 35 31 bd 3a 34 ae be 15 0b 8c 3f
       -0.19049275 -0.043264084 -0.3402422 1.0940882
0003b0 41 06 c8 bd d6 32 21 3f 58 13 77 bd 82 49 c5 be
       -0.09766818 0.62968194 -0.060321182 -0.38532645
0003c0 1f 5d f9 bd 83 7a 0d 3e 91 ac 77 3e 05 18 09 bf
       -0.121759646 0.13816266 0.24186923 -0.53552276
0003d0 c8 ea 97 bd 10 db 2f bf 71 0a c8 be 3b b8 30 3e
       -0.07417828 -0.6869364 -0.39070466 0.17257778
0003e0 bc ee 10 3f c2 65 f0 be f4 25 04 3d f0 ba 02 bf
       0.5661428 -0.46952635 0.032262757 -0.51066494
0003f0 b6 3c 5c 3e 13 43 06 3e fc 21 ea be 6a 15 07 bf
       0.21507534 0.13111524 -0.45729053 -0.5276705

tfl.pseudo_qconst i1 [64, 64]
000000 1a 9d 50 d8 12 f3 d1 13 03 b5 ee 2e 06 fc f2 0f
       26 -99 80 -40 18 -13 -47 19 3 -75 -18 46 6 -4 -14 15
000010 ea e8 d2 54 03 0e ee 16 0c f4 29 fa 38 ed 21 28
       -22 -24 -46 84 3 14 -18 22 12 -12 41 -6 56 -19 33 40
000020 06 46 45 37 df be d9 d9 4f d3 d8 3c d0 c7 c1 12
       6 70 69 55 -33 -66 -39 -39 79 -45 -40 60 -48 -57 -63 18
000030 0a 35 81 16 f3 ca 1c ef cd b6 0c e6 05 43 f9 36
       10 53 -127 22 -13 -54 28 -17 -51 -74 12 -26 5 67 -7 54
000040 ee 67 c9 07 d7 35 35 d2 64 14 f2 b0 e3 c4 b6 7f
       -18 103 -55 7 -41 53 53 -46 100 20 -14 -80 -29 -60 -74 127
000050 1b e5 fd 35 19 47 f0 3c b5 30 f3 18 af da 39 c5
       27 -27 -3 53 25 71 -16 60 -75 48 -13 24 -81 -38 57 -59
000060 bf f2 32 21 fd 44 7b c5 1e 12 d7 2f c6 ef f3 d7
       -65 -14 50 33 -3 68 123 -59 30 18 -41 47 -58 -17 -13 -41
000070 bd fe 0e 09 49 27 f7 cc cf 0d f6 e0 be cf d0 d6
       -67 -2 14 9 73 39 -9 -52 -49 13 -10 -32 -66 -49 -48 -42
000080 01 4a 12 35 54 9e d7 ab 1d e3 43 b5 c9 6b 1f c3
       1 74 18 53 84 -98 -41 -85 29 -29 67 -75 -55 107 31 -61
000090 ce 19 1a cd 15 c7 da fb 22 91 fe 04 5e 40 a4 42
       -50 25 26 -51 21 -57 -38 -5 34 -111 -2 4 94 64 -92 66
0000a0 ef 39 23 20 7f 36 fd 38 ed e1 01 f3 3c c1 ed ad
       -17 57 35 32 127 54 -3 56 -19 -31 1 -13 60 -63 -19 -83
0000b0 4c 28 04 cf fb 8f f9 41 ec bf 01 2b f4 57 0d 2e
       76 40 4 -49 -5 -113 -7 65 -20 -65 1 43 -12 87 13 46
0000c0 18 f2 eb 42 60 e3 c4 a0 c7 10 e1 3c bb 1c e7 cd
       24 -14 -21 66 96 -29 -60 -96 -57 16 -31 60 -69 28 -25 -51
0000d0 28 8c 05 07 f5 3e 1e b3 34 23 29 c3 28 50 e2 b4
       40 -116 5 7 -11 62 30 -77 52 35 41 -61 40 80 -30 -76
0000e0 62 b6 cb 37 db 90 23 fb a8 3f 1b 43 5d d7 b1 e0
       98 -74 -53 55 -37 -112 35 -5 -88 63 27 67 93 -41 -79 -32
0000f0 0c 90 5b 52 02 f4 3f f0 31 d3 cb 1d 61 d6 39 81
       12 -112 91 82 2 -12 63 -16 49 -45 -53 29 97 -42 57 -127

tfl.pseudo_qconst1 i1 [256, 12]
000000 2c fb 52 01 1a ec 12 1c 50 7f ef 69 81 d1 03 1c
       44 -5 82 1 26 -20 18 28 80 127 -17 105 -127 -47 3 28
000010 c8 b0 c3 16 25 da 29 09 dd 1a f3 7f 3c dc f1 1b
       -56 -80 -61 22 37 -38 41 9 -35 26 -13 127 60 -36 -15 27
000020 14 d8 5f 37 0f 1f 0f f2 92 3d 3e 62 ed 7f 0b 01
       20 -40 95 55 15 31 15 -14 -110 61 62 98 -19 127 11 1
000030 16 db 09 ea ff 81 d4 78 29 30 3f 46 32 36 9f e0
       22 -37 9 -22 -1 -127 -44 120 41 48 63 70 50 54 -97 -32
000040 60 aa bb 7d 51 5f 7f 3b 01 dc 0d 62 1f b7 bc 56
       96 -86 -69 125 81 95 127 59 1 -36 13 98 31 -73 -68 86
000050 22 7f 52 4d ee 2d eb db 1f 81 2b 58 2f 33 76 23
       34 127 82 77 -18 45 -21 -37 31 -127 43 88 47 51 118 35
000060 35 f3 30 d7 81 e6 21 41 54 28 f5 4a fc b4 14 2a
       53 -13 48 -41 -127 -26 33 65 84 40 -11 74 -4 -76 20 42
000070 f1 fd 1e 7f 49 29 67 12 23 c6 7f de 8d ee a5 56
       -15 -3 30 127 73 41 103 18 35 -58 127 -34 -115 -18 -91 86
000080 55 29 e8 22 df 30 de 7f b9 ac 00 0a 2f 00 3f 55
       85 41 -24 34 -33 48 -34 127 -71 -84 0 10 47 0 63 85
000090 2f 30 e7 da 3c 1b 12 31 38 53 7f 19 c6 a0 01 ee
       47 48 -25 -38 60 27 18 49 56 83 127 25 -58 -96 1 -18
0000a0 7f c9 b0 06 3c e7 5c f7 6d cf 44 18 9b ad e1 2c
       127 -55 -80 6 60 -25 92 -9 109 -49 68 24 -101 -83 -31 44
0000b0 61 7f 58 29 0e ea 36 f1 5e ac f0 18 3b 7f 74 38
       97 127 88 41 14 -22 54 -15 94 -84 -16 24 59 127 116 56
0000c0 1b dd fc 5b 12 df ec 2f 0f f4 7f 63 2c bd 42 95
       27 -35 -4 91 18 -33 -20 47 15 -12 127 99 44 -67 66 -107
0000d0 ec 24 13 35 0f 7f c5 f2 02 12 df ac f4 04 7f 31
       -20 36 19 53 15 127 -59 -14 2 18 -33 -84 -12 4 127 49
0000e0 14 45 77 1b dc ee 33 11 e5 34 81 62 4f 15 1f eb
       20 69 119 27 -36 -18 51 17 -27 52 -127 98 79 21 31 -21
0000f0 ee 31 49 ba 2e ff f5 2e 68 7f 65 17 6e 0e ea c9
       -18 49 73 -70 46 -1 -11 46 104 127 101 23 110 14 -22 -55

tfl.pseudo_qconst2 i1 [256, 64]
000000 a1 0a 3a 1e 21 db e5 f1 0b 38 ee 05 03 e5 26 42
       -95 10 58 30 33 -37 -27 -15 11 56 -18 5 3 -27 38 66
000010 f3 07 ec 45 20 0d ff 08 f9 c2 c1 ee 21 e9 ef fa
       -13 7 -20 69 32 13 -1 8 -7 -62 -63 -18 33 -23 -17 -6
000020 16 23 f6 d1 11 ed 18 ee fd e7 06 3d f5 24 01 81
       22 35 -10 -47 17 -19 24 -18 -3 -25 6 61 -11 36 1 -127
000030 2e d4 30 03 fd 17 d7 ef 20 e1 df 04 c8 34 0a fd
       46 -44 48 3 -3 23 -41 -17 32 -31 -33 4 -56 52 10 -3
000040 d2 1f 31 f0 18 fd 2e 05 fc f4 ef f6 1b ed 15 f0
       -46 31 49 -16 24 -3 46 5 -4 -12 -17 -10 27 -19 21 -16
000050 fc c2 f2 01 f3 bb f6 e5 b2 ea 16 ee ca f1 db d4
       -4 -62 -14 1 -13 -69 -10 -27 -78 -22 22 -18 -54 -15 -37 -44
000060 d4 0d 1a 3a 26 df 92 c8 ed 1b f6 06 cf fe e9 e9
       -44 13 26 58 38 -33 -110 -56 -19 27 -10 6 -49 -2 -23 -23
000070 2b da 7f f8 19 d0 10 ea f6 4f 26 cf ea 33 ef 10
       43 -38 127 -8 25 -48 16 -22 -10 79 38 -49 -22 51 -17 16
000080 fe df 0e ee d7 43 05 e4 a0 e3 0f 98 04 37 4f c4
       -2 -33 14 -18 -41 67 5 -28 -96 -29 15 -104 4 55 79 -60
000090 e0 0a 34 e5 d9 19 08 fb 2f 2c 09 17 1e 4d cd 0a
       -32 10 52 -27 -39 25 8 -5 47 44 9 23 30 77 -51 10
0000a0 ec 28 10 01 30 e5 e9 2f f1 1e 44 0f 7f 58 df b1
       -20 40 16 1 48 -27 -23 47 -15 30 68 15 127 88 -33 -79
0000b0 07 0d ac dd 2a 17 c8 f4 bd 04 46 00 13 be 26 ee
       7 13 -84 -35 42 23 -56 -12 -67 4 70 0 19 -66 38 -18
0000c0 1f f6 e3 ea f7 05 02 ea f9 e0 fe e9 16 00 15 25
       31 -10 -29 -22 -9 5 2 -22 -7 -32 -2 -23 22 0 21 37
0000d0 27 ef e3 37 37 ff e0 d8 08 ce 51 b0 12 08 00 e2
       39 -17 -29 55 55 -1 -32 -40 8 -50 81 -80 18 8 0 -30
0000e0 1e fb f2 fe 32 bc d8 97 3f 00 de 0c c3 e5 46 cd
       30 -5 -14 -2 50 -68 -40 -105 63 0 -34 12 -61 -27 70 -51
0000f0 02 eb 81 08 dd 0a 00 13 ed e2 f2 c4 0f c9 bd f3
       2 -21 -127 8 -35 10 0 19 -19 -30 -14 -60 15 -55 -67 -13
